converted_model.tflite (tflite, 651268 bytes, 8 tensors)

conv2d/Conv2D_bias f4 [16]
000000 77 ca db bb 85 31 65 bc bd 26 0a 3c 52 df a9 bc
       -0.0067074853 -0.013988857 0.0084320875 -0.02073637
000010 40 6b a5 3d cb c0 f4 3c 81 56 46 3c 55 ae 87 3d
       0.08077097 0.029877087 0.012105585 0.06625048
000020 33 88 01 3d ff ee 0b bd 00 d0 c0 3c 9c 86 ca 3b
       0.03162403 -0.03416347 0.023536682 0.0061805975
000030 e0 ba f3 3b 28 ac 00 bc 79 81 1a bc 3c 0b 93 3a
       0.0074380487 -0.007853545 -0.009430283 0.0011218558

conv2d/kernel f4 [1, 2, 2, 16]
000000 c4 91 83 3e 77 2e 43 3d 88 1e 01 3d e7 06 87 3e
       0.25697148 0.047651734 0.031523257 0.26372454
000010 21 b2 a6 bd a2 23 08 3d 62 71 85 3e fb 98 56 be
       -0.08139444 0.033237107 0.26063067 -0.20956795
000020 f6 fc 12 3e 92 56 8b 3e 4c 23 2b 3e b0 fc 4f 3e
       0.1435431 0.27214485 0.16712683 0.20311236
000030 dd ed a7 3e 62 40 18 bd 2f a7 96 bc e4 a3 71 3e
       0.32798663 -0.037170775 -0.018390266 0.23597676
000040 03 a4 c6 3d f7 f1 16 bd 0a cd fe bd 94 36 1a be
       0.096992515 -0.03685185 -0.12441452 -0.15059882
000050 2c 7e 67 be ff fc 85 3e 0c b1 35 bd e8 b8 fe bd
       -0.22606725 0.26169583 -0.0443583 -0.12437612
000060 2a 62 2c 3d 51 b6 a7 be 9a ba 8a 3e 78 65 ab 3d
       0.042085804 -0.32756284 0.2709549 0.08368963
000070 18 5d 81 be ae 6b 0a 3e 16 58 1e bd 98 6e b3 3d
       -0.25266337 0.13517639 -0.038658224 0.087613285
000080 a7 30 95 3d 81 35 10 be ca f0 81 be 02 79 ac 3d
       0.0728467 -0.1408291 -0.2537902 0.08421518
000090 96 f0 c1 be 1c 61 83 3d 46 95 5d be 63 97 bc be
       -0.37878865 0.064150065 -0.21638975 -0.3683425
0000a0 70 96 cb 3c b4 cd 3d 3d d6 40 5e 3e 4b d9 2d 3e
       0.024852008 0.046338752 0.2170442 0.16977422
0000b0 30 c5 19 bc cc f2 fa 3d bd 03 37 be 94 27 a5 be
       -0.009385392 0.12253341 -0.1787252 -0.32256758
0000c0 35 9d d0 bd 5f c3 86 3e c8 cc a6 3e 20 a6 4f be
       -0.10186235 0.2632093 0.3257811 -0.20278215
0000d0 e4 e0 4c 3d 47 f9 67 be 0a 7d 8f be 4f c1 dc bd
       0.05001916 -0.22653686 -0.28025085 -0.10779058
0000e0 f3 71 f5 bc 98 1a f2 3b 48 da 2d 3e 8e 8c 42 be
       -0.029961562 0.007388424 0.16977799 -0.1899893
0000f0 e9 08 2d be e9 a8 59 be 23 98 6b 3e 56 b0 30 bb
       -0.1689793 -0.2125584 0.23007254 -0.0026960573

conv2d_1/Conv2D_bias f4 [32]
000000 82 2c 0b 3d ff 69 52 3d 5e 21 79 3c 87 99 59 3d
       0.033977993 0.051370617 0.015205709 0.05312493
000010 a2 6e 75 3b f8 61 2d bc 3f 8b 84 3d 37 0d 2d 3d
       0.0037449975 -0.01058244 0.064718716 0.04224893
000020 13 6a 94 bc b4 a9 76 3b fd e0 11 bc 1e ad 2c bd
       -0.018116986 0.0037637772 -0.008903739 -0.042157285
000030 f0 ce 9b 3d d0 8c 27 3c d2 bf be 3c ed 7b 76 3c
       0.076078296 0.010226443 0.023284826 0.015044195
000040 05 5d d4 3c c2 e3 2d 3d b6 79 81 3b 95 4e e9 bc
       0.025923261 0.042453535 0.0039512767 -0.028479854
000050 32 e8 53 bd 77 f9 71 3c 2f 58 4b bb 82 72 f4 bc
       -0.05173511 0.01476895 -0.0031027903 -0.029839758
000060 a1 f3 9c 3b 07 cd 05 3d 20 a5 25 bc cd c1 1c bd
       0.004789785 0.032666232 -0.01011017 -0.03827076
000070 67 ec 0a bd f9 30 7e 3d 4d ba ca bb 47 be bb 3c
       -0.033916857 0.062058423 -0.0061867596 0.02291788

conv2d_1/kernel f4 [32, 2, 2, 16]
000000 77 c1 10 3e 7e 34 24 3d 61 bb b5 bd e8 ab 98 3d
       0.14136301 0.040089123 -0.0887363 0.074546635
000010 a7 51 cf bc 9d 46 c1 bd 35 87 c4 bd e5 d8 af 3d
       -0.02530749 -0.094372965 -0.09596101 0.08586291
000020 03 6b a4 bd d9 66 15 3e ac 47 bc bd e7 13 f2 3d
       -0.08028223 0.14590015 -0.09193358 0.11820202
000030 35 a2 0e be ca ad c3 bd a1 7f 12 bd 46 5e 53 bd
       -0.13929065 -0.09554632 -0.035766248 -0.051603578
000040 b4 79 c6 3d df bd f5 bd e0 27 47 be 0d 16 d0 bd
       0.09691182 -0.11999106 -0.19448805 -0.10160456
000050 a0 0a fe 3d d8 84 75 3d 1f fc 15 3e 36 cf 40 3d
       0.1240437 0.059941143 0.14646958 0.04707261
000060 1e 5c 07 be ec 29 94 bd 72 23 89 bd 17 9a 25 3d
       -0.13218734 -0.072345585 -0.06696214 0.040430155
000070 8e 12 f0 bd 69 81 dc bb e0 18 81 bd 19 a7 8d 3d
       -0.11722289 -0.006729294 -0.06303573 0.06916637
000080 24 40 2d 3e 9a 97 0a 3e d5 e9 07 3e 92 95 a8 3d
       0.16918999 0.13534394 0.13272794 0.08231653
000090 e7 c3 73 bd fa 0f 56 be 16 08 6d 3e 5c 32 24 be
       -0.059513 -0.20904532 0.23147616 -0.16034836
0000a0 0c 71 ec 3d 5c 83 a9 bc 60 e8 0f be e5 b2 13 3e
       0.115449995 -0.02069252 -0.14053488 0.14423712
0000b0 0c 90 ce bc f8 af 47 be e0 a2 3d bd 48 86 a0 bd
       -0.025215171 -0.1950072 -0.046297908 -0.07838112
0000c0 b8 b4 15 be c5 4b 0f 3e 7d a9 15 be 51 9e 46 3e
       -0.1461972 0.13993748 -0.14615436 0.1939633
0000d0 93 f1 9b bd a1 3e b6 3c 45 ab 21 be d1 b9 f6 bd
       -0.07614436 0.02224666 -0.1578799 -0.120471604
0000e0 7f 06 c3 bd d0 ee 22 3e a6 3c a0 3d 86 ad 38 3e
       -0.095227234 0.15911412 0.07824068 0.18034944
0000f0 9a 2c f1 bc e0 37 12 be f4 2e 46 be be 95 ff bd
       -0.029440213 -0.14279127 -0.19353849 -0.12479733
000100 ff 74 cb bd 68 fb 27 3e df 34 e4 bd d5 30 a5 bb
       -0.099344246 0.16404498 -0.11142897 -0.0050412216
000110 60 64 84 3d 42 22 76 3d 64 13 b5 3b ef 99 0b 3e
       0.064644575 0.060091265 0.005525993 0.1363294
000120 e8 b9 cf bd ac cf 00 3d 0c cf c2 3c 59 3d 1d 3e
       -0.10142881 0.03144805 0.023780368 0.15355434
000130 d8 fc 8f 3d 19 dd c5 bd 88 68 83 be f0 e0 74 be
       0.07030648 -0.09661312 -0.2566569 -0.23913932
000140 47 cb e2 bd a2 d4 ea 3d 78 f8 e1 3d 40 d5 15 be
       -0.11073928 0.11466338 0.1103372 -0.1463213
000150 75 4f 6c 3e d3 d9 83 bd 50 c8 fa 3d eb 10 81 3e
       0.23077185 -0.06438031 0.12245238 0.2520822
000160 4b f8 0d 3d 92 f0 34 bd f2 41 0c 3e 7f fe ea 3d
       0.03466062 -0.04417474 0.13697031 0.114743225
000170 11 99 d9 bd af 40 51 be cd 1c 6d be c3 bc 6d bd
       -0.10624898 -0.20434831 -0.23155518 -0.058041345
000180 20 e4 21 3e 83 dd ea 3c 80 54 d1 3a 51 05 22 be
       0.15809679 0.028670078 0.0015970618 -0.1582234
000190 ed 3b 14 3e 0c ed ff 3b b2 a5 1d 3e ca 7a 48 3e
       0.14475985 0.0078102406 0.15395239 0.1957809
0001a0 65 43 6a bd ed c5 25 bd 16 cf 08 bd bb f2 7a 3c
       -0.05719318 -0.04047196 -0.033400618 0.0153166605
0001b0 b0 13 ae bd c5 44 09 bb 9c ba 95 bb ec 5f 0c be
       -0.08499849 -0.002094553 -0.0045693647 -0.13708466
0001c0 45 43 da bd dc 70 d4 bc 86 15 cc bd 86 74 e4 bd
       -0.10657362 -0.025932722 -0.09965043 -0.111550376
0001d0 66 d6 0a 3d 1a 27 ac bd ae 4f 1c 3e 5d 30 1f 3d
       0.033895873 -0.084058955 0.1526477 0.038864482
0001e0 70 b7 e6 3d 4e 43 eb bd 5d 0f 5a 3d bd 2d 01 bd
       0.11265457 -0.11487447 0.053237308 -0.03153776
0001f0 c1 5a 32 be 24 81 34 be 4a 80 80 bd a6 d7 76 be
       -0.17417432 -0.17627388 -0.06274469 -0.24105701
000200 d4 82 6f bd 18 82 20 be d2 31 c4 bd 18 6a 3e be
       -0.058474377 -0.15674627 -0.09579815 -0.18595159
000210 db 88 c9 3d 39 c1 1b be 2a 55 28 3e f5 32 1b be
       0.09840556 -0.15210427 0.16438738 -0.15156157
000220 1f 2a 0a bd ee 64 38 be dd 3e 02 3e b0 8c 27 3e
       -0.033731576 -0.18007252 0.12719293 0.16362262
000230 8c c1 21 be 31 02 3a bd cd 55 14 3c 95 7f 8d bd
       -0.15796489 -0.045412246 0.00905366 -0.069091
000240 13 8c d5 bd 98 74 f5 3a 98 73 e3 bd 6d a1 31 bb
       -0.10427108 0.0018726764 -0.11106032 -0.0027104274
000250 e2 6c 62 be 69 27 bd 3d 5f fb 13 3d bb 33 64 3c
       -0.22111848 0.092360325 0.036128398 0.013928349
000260 fa 45 c0 bd e7 7d 07 bd 5f 8a f6 3d 04 70 b3 3d
       -0.09388347 -0.033079054 0.12038111 0.087616
000270 a2 bc 82 be de 2e 24 bd 77 84 1b 3d 31 3d d5 3d
       -0.2553454 -0.04008376 0.037968125 0.10412062
000280 cd 10 2b 3e 1c 93 a3 bd 8f 4d 19 be 17 16 dc 3d
       0.16705628 -0.07987043 -0.14970993 0.10746401
000290 28 fd 82 bd a5 18 0d be ec bd d6 3d de 5c 12 3d
       -0.06395942 -0.13778932 0.104854435 0.035733096
0002a0 e2 33 02 3e 63 e0 1f be d9 0a 1e 3d 19 26 96 3d
       0.12715104 -0.1561294 0.038584564 0.07331485
0002b0 de 21 53 bc 1a 21 f4 bd c1 2b 25 bd 3d b6 c2 3d
       -0.012886493 -0.11920376 -0.04032493 0.095074154
0002c0 49 91 0c bd f3 96 8a 3d 5c 85 da bd a7 22 ad 3d
       -0.034318242 0.067670725 -0.106699675 0.08453875
0002d0 9e b5 bf bd 0a 00 2a be 2b da 84 3d 01 be 93 3a
       -0.093608126 -0.16601577 0.06486925 0.0011271836
0002e0 e3 41 b7 bd 7c 2b c5 3d c2 2f 0b 3d 30 5a 18 3e
       -0.08948114 0.096274346 0.033981092 0.14878154
0002f0 c1 c5 9b bd 4a a5 c4 bb c8 cb 87 bd 3b 5d 44 bd
       -0.07606078 -0.0060011493 -0.06630665 -0.047940474
000300 f9 7f ec bd 99 35 08 be 13 0a cf 3d bb 19 c3 bd
       -0.11547846 -0.13301696 0.101093434 -0.09526392
000310 4d ac 35 be 55 7f 47 3d 77 40 8b 3d 69 56 a9 bc
       -0.17741509 0.048705418 0.06799405 -0.020671086
000320 bc 84 e6 3d ed 21 1c be 74 d0 0e 3e 61 17 c9 3b
       0.11255786 -0.15247317 0.13946706 0.00613682
000330 87 5b 32 bb 38 4e c1 bd d3 cd 23 be 2a 76 3b 3d
       -0.00272152 -0.09438747 -0.15996484 0.045766987
000340 3e f7 12 bd 15 fb 0e 3d 32 9b 19 3d 31 d8 19 be
       -0.03588032 0.03490742 0.03750152 -0.15023877
000350 8f 69 a7 bb 5c 28 d3 3d 3a 68 16 bd 6e ef c5 bc
       -0.005109019 0.10310432 -0.036720492 -0.02416202
000360 6d 02 ef 3d ab 60 38 be 17 cc d1 bd 51 fe c9 3d
       0.116703846 -0.18005626 -0.10244005 0.0986296
000370 08 1b 1f be 19 16 86 bd 82 13 ce 3d 7b 57 b5 bd
       -0.15537655 -0.065471835 0.100623146 -0.08854576
000380 b9 75 b7 3d cc 89 07 3e 8d ba d5 bd 90 72 22 be
       0.08958001 0.13236159 -0.10435972 -0.15864015
000390 93 d9 8d 3c 91 82 a3 bd e4 25 a6 3d 33 a4 9f bd
       0.017315662 -0.07983888 0.08112696 -0.077949904
0003a0 64 07 e0 3d 62 17 8c bb 0a 5e 99 3d 92 8e 48 3d
       0.1093891 -0.0042752484 0.0748864 0.04896409
0003b0 6f 6b 68 bd c7 2b de 3d ec 38 69 be 78 1d 5a 3d
       -0.05674308 0.108481936 -0.2277562 0.05325076
0003c0 bf d8 87 3c 3b 9a 1d be b2 90 ba 3d b3 31 d7 bd
       0.016582845 -0.15390866 0.0910963 -0.10507526
0003d0 25 1b 41 be 95 63 76 bd 75 09 0e be 0a f7 79 be
       -0.18858011 -0.060153563 -0.13870795 -0.24410644
0003e0 0e d6 f7 3d b4 75 e8 3d b6 51 25 3e f1 0f c5 bd
       0.121013746 0.11350575 0.16144451 -0.09622181
0003f0 8c bc 1e bd ab 1d 20 bd 75 6f 2a 3d be b2 dd bd
       -0.03875403 -0.039090794 0.0416102 -0.10825108

dense/MatMul_bias f4 [64]
000000 a0 f4 c8 bb 97 2a c1 bb 23 0c 8b bb 92 8f ed bb
       -0.006132677 -0.0058949697 -0.00424339 -0.007249781
000010 05 e1 07 bc 9f 45 b1 bb 22 6f 87 bc 2b c1 16 3c
       -0.008293395 -0.005409911 -0.016532484 0.009201328
000020 11 5b 95 bc af 43 35 bb 21 5d 64 bb fd 7b 24 bb
       -0.0182319 -0.002765875 -0.0034845548 -0.0025098317
000030 f7 42 a6 bb 24 ff ec bb d7 8e e0 3b 54 ab 8e bb
       -0.005073901 -0.0072325636 0.0068529653 -0.00435392
000040 16 72 bf bb bb c6 c4 bb 87 21 b6 bb 1e 0f 91 bc
       -0.0058424575 -0.006005136 -0.005558196 -0.017707404
000050 54 0d df bb c6 31 71 bc ea aa 0f bc ee 6f cb bb
       -0.0068070088 -0.01472134 -0.008768776 -0.0062084114
000060 1a 18 45 bc 5f ed 8d bc f5 c5 c4 bb 98 93 7d bc
       -0.012029672 -0.017325101 -0.0060050436 -0.015477084
000070 90 58 09 bc 4f db 22 bc 56 60 97 bb f7 3c b7 bb
       -0.008382931 -0.009939983 -0.0046196384 -0.0055919844
000080 a9 b9 bf ba 3a 9c de bb 55 9b f4 3b 8e 99 7b bc
       -0.0014627475 -0.006793526 0.007464806 -0.0153564345
000090 19 30 fa bb d2 8c cf bb 23 cb ed 3b a4 44 e0 bb
       -0.007635128 -0.0063339258 0.007256882 -0.00684412
0000a0 bb 14 14 bb 72 a4 f7 bb d5 bf c4 bb bc 6c d4 bb
       -0.0022595364 -0.007557445 -0.0060043135 -0.0064826887
0000b0 40 ef 51 3a b7 95 89 bb 7f 06 8a bc dc f7 c7 bb
       0.00080083683 -0.0041987556 -0.0168488 -0.006102545
0000c0 1d 53 70 bc 38 61 2f 3c 4a b2 14 3b 37 22 cb bb
       -0.014668253 0.010704331 0.0022689276 -0.006199147
0000d0 00 99 e3 3b ac c8 c4 bb 64 a3 a4 bb 3f f4 e7 bb
       0.0069457293 -0.0060053673 -0.0050243605 -0.007078677
0000e0 a9 0a 77 bb 6a de fd bb 3b 0f 23 3b 58 44 c6 bb
       -0.0037695563 -0.007747461 0.0024880904 -0.0060506277
0000f0 bc 08 d3 bb b2 22 b6 bb 93 bd c4 bb a5 b4 e3 bb
       -0.00644025 -0.005558335 -0.0060040443 -0.0069490247

dense/kernel/transpose f4 [64, 2496]
000000 96 d7 bf bc fa 6a d2 bc 33 01 26 3d d6 f4 3d 3c
       -0.02341823 -0.025685776 0.040528487 0.011594018
000010 e5 e0 fa 3a 71 4d 13 3d 57 cb b4 bc f5 e0 96 3c
       0.001914051 0.035962526 -0.022069616 0.018417815
000020 34 fc 54 bd da 1b c5 3c a9 d5 74 3c 72 92 4d bd
       -0.051998332 0.024061132 0.014943519 -0.05018849
000030 db 1d 14 bd 37 f4 01 3b 64 d4 29 3c 6a cf 49 bd
       -0.036161285 0.0019829401 0.010365579 -0.04927007
000040 70 f0 5b bd 2e 93 14 3b ea 1f 28 3c 63 a5 4d bb
       -0.053696096 0.0022670734 0.010261515 -0.0031379096
000050 03 fa 01 bd fe 01 28 3d e9 44 af bc 74 db a4 bb
       -0.03173257 0.041017525 -0.021395164 -0.0050310437
000060 c5 5b f9 ba 1e 5d c4 bc 2a 97 a5 bb ce 93 a9 bc
       -0.0019024542 -0.023970183 -0.0050534206 -0.020700362
000070 be 4b 28 3d 47 bc 35 3c 8b 37 e8 3b 84 af b0 bc
       0.04108786 0.011092252 0.0070866994 -0.021568067
000080 dc be c9 3c 43 77 1a bd 67 06 2c bd d2 ee 57 bd
       0.024627142 -0.037711393 -0.041998293 -0.05271799
000090 2a db 12 3d 9e 0b b3 3c 32 79 eb bc b3 39 52 bc
       0.035853542 0.021856125 -0.028744314 -0.012831139
0000a0 8b a6 e1 bb 6c f3 19 3d b1 10 4a bd b7 52 e6 ba
       -0.0068863085 0.03758566 -0.049332324 -0.0017572258
0000b0 b1 59 0e bc dd b7 20 3d f9 3e 67 ba a0 d1 a3 3c
       -0.008688376 0.039237846 -0.00088213343 0.019997418
0000c0 7a 70 1a 3d 27 35 33 bd 89 d0 24 3d 79 23 30 bd
       0.037704922 -0.043751862 0.040237937 -0.04300258
0000d0 4d ef 14 3d 03 d1 29 bd 6e a6 f8 3c 15 9a 1b 3d
       0.036361028 -0.041459095 0.030352797 0.03798874
0000e0 20 8a 85 bc 51 5b 2f 3b 9d 3c 88 bb c9 6b 10 3b
       -0.016301215 0.002675731 -0.0041576163 0.0022036901
0000f0 a1 b2 8b bc 42 30 f4 3c 0c 65 99 3b 48 0f 30 bc
       -0.01705295 0.029808167 0.004681235 -0.010745831
000100 c2 0e ea 3c a0 f4 03 bd 46 74 c2 3c 2b 90 08 3d
       0.02857149 -0.032215714 0.023737084 0.033340614
000110 57 86 d4 3c 83 a1 8f 3c 4b fd cf bc 5a ea 94 3c
       0.025942964 0.01753307 -0.025389334 0.018178154
000120 1a a1 d7 bc 0e a1 05 3a a6 74 04 3d a3 e2 24 3d
       -0.026321936 0.00050975464 0.032337807 0.0402552
000130 e8 ae 2c bd 21 be ff 3c 44 e9 d8 bc c2 97 1a 3d
       -0.04215899 0.03121859 -0.026478417 0.037742384
000140 a7 b1 59 bd 97 bc da 3c 79 8d 06 bd fd b2 04 bd
       -0.053147938 0.026701255 -0.032849763 -0.03239726
000150 38 00 4f bd d2 20 4d bd ae fa 63 3c 8f ed 88 3c
       -0.050537318 -0.050080128 0.013914747 0.01671484
000160 a2 d6 60 bd 75 f0 1c 3d eb 33 56 bd bf 04 c0 3c
       -0.05489219 0.038315255 -0.052295607 0.023439763
000170 2d 97 d6 bc 03 f5 cb 3c 98 9b 11 3d f9 53 11 bd
       -0.026195133 0.024897104 0.035548776 -0.035480473
000180 c6 5a 12 bd cc 5b a4 3c 22 26 9f 3c df 98 0d bd
       -0.0357311 0.020063303 0.019427363 -0.034569617
000190 31 50 41 bd 73 60 9c 3c ca fd a4 bc 83 4f 29 3d
       -0.047195617 0.01908896 -0.020140547 0.041335594
0001a0 5d 5f 76 bc b7 f5 eb bc a0 36 30 bd a4 58 24 bc
       -0.015037385 -0.02880369 -0.043020844 -0.010030899
0001b0 42 05 c2 3b 90 58 bf bc a0 e1 88 3c ef d6 fd bc
       0.005921037 -0.02335766 0.016709149 -0.030986277
0001c0 99 75 19 bd 0c 0a aa 3c 4c 14 ba 3b c7 55 7e 3c
       -0.037465665 0.020756744 0.005678689 0.015523381
0001d0 d3 13 8b bc 70 68 37 bd 27 ba 8b bc c7 72 50 bd
       -0.016977226 -0.044777334 -0.017056538 -0.05089071
0001e0 70 4e 5d bc 28 0c e1 bb cb f3 03 bd 22 94 00 bd
       -0.0135074705 -0.006867904 -0.03221492 -0.03139127
0001f0 6a 83 b7 bc ed 21 3e bd f2 26 27 3d de 49 01 3d
       -0.02240153 -0.046419073 0.040808626 0.031564586
000200 dd fe ba 3c 08 a6 94 3c e6 43 a4 3c b0 aa 29 bd
       0.022826606 0.018145576 0.020051908 -0.041422546
000210 e6 cf e1 bc c5 6e 17 bd 00 fd 10 ba 48 05 c6 bb
       -0.027564954 -0.036970872 -0.0005530864 -0.00604311
000220 d2 27 14 3d b4 22 39 bb 47 04 3d bd 5e 1f 29 3d
       0.036170788 -0.0028249444 -0.046146657 0.04128968
000230 59 2c 43 bd f7 8c 29 3d 36 40 6d bb 01 62 1e 3d
       -0.047649715 0.0413942 -0.0036201603 0.038667683
000240 1c fc 66 3c 5b 07 14 bd 6f 66 9b bc a8 36 d2 3b
       0.0140981935 -0.036139827 -0.018969743 0.006415207
000250 9a ce 4d bc 9d 1d 4a 3c 3f 69 99 3c d5 21 c6 bc
       -0.012561465 0.012336162 0.018726943 -0.024186054
000260 4a 1f 80 bc 26 bd a2 bb 06 7e 9a 39 3c 0f e0 3c
       -0.01563992 -0.004966396 0.00029467064 0.027351014
000270 3b 1a cf 3b 91 49 17 3d d8 7f be bc 61 76 d7 3b
       0.0063202656 0.036935393 -0.02325432 0.006575391
000280 23 12 28 3d a2 0f 7f 3c d8 54 a7 bc 19 f9 00 3c
       0.04103292 0.015567692 -0.020426199 0.0078718895
000290 f0 bc dc 3c 67 3e 41 3c 12 77 44 3d 43 e4 98 3b
       0.026945561 0.011794663 0.047965117 0.004665883
0002a0 7f e1 a7 bc e4 55 62 3c 49 6f c9 bb 94 fe 3a ba
       -0.020493267 0.013814423 -0.0061472994 -0.0007133272
0002b0 e2 ad f6 bb 5c c8 b0 3c 51 7d b4 bc 0a 62 11 bc
       -0.0075280527 0.021579914 -0.022032412 -0.008873472
0002c0 94 fa 0d 3d ca ae b2 bc 12 24 a8 bc d0 0c 24 bd
       0.034662798 -0.021811862 -0.020525012 -0.04005128
0002d0 be 3a 0f 3d 8c 83 0e 3b fc 84 d3 bc d2 40 07 bd
       0.03496813 0.0021745889 -0.025820248 -0.0330208
0002e0 16 3f 98 bb e3 e7 0b 3d 0c 09 87 bc 2c 9f 01 bd
       -0.0046461923 0.03415669 -0.016483806 -0.03164594
0002f0 f2 d3 a2 bc 22 1c de bc 72 35 0a bd a3 fd 04 bc
       -0.019876454 -0.027113024 -0.033742376 -0.008117112
000300 31 99 43 bc 93 72 a1 3c de a1 01 3c 4d 70 03 bd
       -0.011938379 0.019707954 0.007912127 -0.03208952
000310 69 04 c3 bc 36 33 4b bc 4c 06 05 3d df 95 a7 bc
       -0.023805814 -0.012402346 0.03247671 -0.020457206
000320 7a 21 a7 3b 90 1d 39 bd 53 70 af bc 00 24 b9 3c
       0.0051004263 -0.04519421 -0.021415865 0.022600174
000330 e2 8a b5 3b b8 83 03 bd 0c cc 2c bb b7 dd e5 3c
       0.0055402378 -0.03210804 -0.0026366739 0.028059823
000340 bf ce 21 3d f2 9e 33 3c 02 e0 44 bd 01 e5 97 3c
       0.03950381 0.0109631885 -0.048065193 0.018541815
000350 61 98 7e 3c 69 ac 97 3b 7b f5 ad 3c 40 9b 2a bd
       0.01553926 0.004628707 0.021235218 -0.041651964
000360 bd 87 ed bc 82 98 8a bc 8b a9 61 3c 4e 98 13 3d
       -0.02899539 -0.016918425 0.013773332 0.03603392
000370 6f cd b1 3b c8 17 c1 bc ec ce ae 3c 9c 51 9e bc
       0.005426101 -0.02357091 0.021338902 -0.019326024
000380 28 51 55 bc f1 c3 23 bd 85 68 c5 bc 1b af 9f 3c
       -0.013019837 -0.039981786 -0.02409769 0.019492676
000390 26 72 0c 3b c0 6c f8 bb 00 61 17 3a 39 74 1f 3d
       0.0021430342 -0.0075813234 0.0005774647 0.038929198
0003a0 b9 c1 b7 3c b6 02 1f bc 8e e3 12 3c dc 6b 3f 3c
       0.022431241 -0.009705236 0.008965386 0.0116834305
0003b0 d0 8d 5d 39 06 d9 22 bd 9c 6a 74 3c b0 d0 57 bd
       0.00021129032 -0.03975775 0.014917996 -0.052689254
0003c0 21 83 6c bc 94 9b af 3c 3b 94 0d 3c 2b 7b 08 3d
       -0.01443556 0.02143649 0.008641298 0.033320587
0003d0 4f 80 c4 3c c9 a6 05 bd e3 ba b6 bc 25 46 41 bb
       0.023986964 -0.03262976 -0.022305911 -0.0029491272
0003e0 8d 7a 0b bd e2 45 0a bd 94 9b ce 3c 4a b8 06 bd
       -0.03405242 -0.03375805 0.02522067 -0.032890595
0003f0 9d 4f 8a bc ec 56 06 bd 50 07 1c bd 27 1b 64 bc
       -0.016883666 -0.03279774 -0.03809291 -0.013922489

dense_1/MatMul_bias f4 [6]
000000 80 00 8c 3d 04 cd 2e be 94 f9 8c bd 0e 31 82 bd
       0.06836033 -0.17070395 -0.06883541 -0.06357013
000010 58 3a d1 3d 75 2a 5b 3d
       0.10216206 0.053507287

dense_1/kernel/transpose f4 [6, 64]
000000 0f 79 2b bd f7 08 b9 3d da 7f 44 be a4 3a 0b 3e
       -0.041863497 0.09034913 -0.19189397 0.13596588
000010 bd 2b 27 be 1e ff 4a be 96 11 45 be 41 65 76 3e
       -0.16325279 -0.19823882 -0.1924499 0.24062063
000020 02 81 98 bd ee f2 5a 3e f9 3d 36 3d 88 fc e3 3d
       -0.07446481 0.21381733 0.044492695 0.11132151
000030 b2 2f 67 be f5 c5 57 bd 8b ef 6a 3e 47 74 70 3e
       -0.22576788 -0.05267902 0.22942941 0.23481856
000040 85 9c 28 be 8a b7 5d 3d 34 7f 68 3e 2b fd 69 bd
       -0.16465957 0.054130115 0.22704774 -0.057126205
000050 58 66 e8 bd ac 58 0f 3e a9 1f 51 3e cb 65 a3 bd
       -0.113476455 0.1399867 0.20422234 -0.079784
000060 c7 8c 2e bd c8 75 18 3d 7c f5 d0 bd 42 08 7b be
       -0.042614724 0.0372217 -0.102030724 -0.24514869
000070 e0 d0 24 be 58 bc 82 be 6c 99 17 be 9a 1c 21 3e
       -0.16095304 -0.2553432 -0.1480462 0.15733567
000080 19 6d 1e be ed 89 2d 3e bc 53 21 3e 35 f2 7b 3d
       -0.15471305 0.16947146 0.15754598 0.061510283
000090 98 98 8f 3e 8c bb 52 be ff 81 43 be 91 76 61 3d
       0.28046107 -0.20579356 -0.19092558 0.055044714
0000a0 76 0d f9 3d 7e c2 e2 3d 26 66 79 3e 85 0b 80 3e
       0.121607706 0.11072253 0.24355373 0.2500879
0000b0 fd 81 16 bd b8 bf 5d 3e 85 9a bd 3a df ca 30 3e
       -0.03674506 0.21655166 0.0014465606 0.17264889
0000c0 92 b5 0f be 6e 7b 8a 3d ee 25 66 be 0c 7f 88 be
       -0.14034107 0.067618236 -0.22475407 -0.2665943
0000d0 4c 9f fb 3d d6 ca 05 ba 13 c0 29 be 10 e4 31 be
       0.12286243 -0.0005103772 -0.16577177 -0.17372155
0000e0 b3 d5 8f 3e 60 82 6d 3d 5c 66 ef bc a2 c4 08 be
       0.28092727 0.057985663 -0.029223613 -0.1335626
0000f0 07 8d 38 3d c9 59 0a bd c6 0f 43 be 4c 6f 8a 3e
       0.04505637 -0.033777032 -0.19048986 0.27038038
000100 64 9a ed 3d b4 eb 36 3c 36 8a 1c bd 1f 1d 4c 3d
       0.11601713 0.011164594 -0.038217746 0.04983246
000110 a3 85 93 be 9a 98 2b 3e a1 71 00 bc c6 7f 1f bc
       -0.28812894 0.16757432 -0.007839591 -0.009735053
000120 68 6a 3e 3e 09 59 b9 bd 9d a5 88 bd 16 7e 87 be
       0.18595278 -0.09050185 -0.06672213 -0.26463383
000130 fa 35 c5 3c 8b 7b 2b be 11 64 1a bd 1c 15 6e be
       0.02407359 -0.16746347 -0.037693087 -0.2325024
000140 9a 7c 47 be a8 63 4c be 18 08 54 3d 48 36 ea 3d
       -0.19481125 -0.19959891 0.05176553 0.114361346
000150 8c 44 08 be 52 35 59 3e c5 79 62 bd c8 d8 02 be
       -0.13307399 0.21211746 -0.05529191 -0.12778008
000160 c6 bc 31 bc b5 89 67 be 62 3f 71 bb a5 36 80 3e
       -0.01084823 -0.22611125 -0.003681146 0.2504169
000170 06 71 2e 3e cd 80 6d 3e 1d 52 50 be 96 b0 87 bd
       0.17035303 0.23193665 -0.20343824 -0.06625478
000180 3a 97 70 bc 31 37 7c 3c 26 b7 06 be 79 2d 91 3e
       -0.014684493 0.015394018 -0.13155803 0.28355005
000190 d9 74 a2 bd ab f0 f7 3d 04 e3 ae be 67 10 8b 3d
       -0.07932443 0.12106451 -0.34157574 0.06790238
0001a0 57 b9 30 bd e0 3c 62 bd 5d c0 c5 3d a4 65 4a be
       -0.043145504 -0.055233836 0.09655831 -0.19765335
0001b0 2d 83 d9 bd 03 93 78 bd 88 2f 90 3e 84 ab 90 3d
       -0.10620723 -0.060687076 0.28161263 0.07063964
0001c0 37 07 5a 3e 50 e5 8a be 03 e5 02 be a3 55 42 be
       0.21291815 -0.27128077 -0.12782674 -0.1897798
0001d0 7b 5e 91 3d ad d5 16 be 71 59 74 3d 45 7a b7 bd
       0.07098099 -0.14729948 0.05965561 -0.08958868
0001e0 b4 dc 12 3e 61 f1 ee 3d 70 0e 85 be 70 1f 8f be
       0.14342004 0.11667133 -0.25987577 -0.27953672
0001f0 6c d5 ad bd 34 2f 27 be 35 90 a8 3c ce 67 92 3c
       -0.084879726 -0.163266 0.020576576 0.017871764
000200 19 4d 81 be cf 91 8a 3e 7a 07 74 3d da 69 8f 3c
       -0.25254133 0.27064368 0.059577443 0.017506529
000210 a5 16 90 3c d4 93 f6 bd 6f 88 e4 be b0 9b 38 bc
       0.017588923 -0.12039915 -0.4463534 -0.011267588
000220 b5 32 e4 3d 54 9e 82 3e 68 0d 29 bc 6e 5e 5e 3e
       0.11142484 0.2551142 -0.010318138 0.2171571
000230 1f 97 18 bd 6a 74 35 3e 82 2e 87 3e e4 41 83 bd
       -0.037253495 0.1772019 0.2640267 -0.06409052
000240 b3 92 af bb 83 f5 a4 bd 4c 7a dc 3c 3a 79 55 3e
       -0.005358064 -0.0805464 0.026913784 0.20847026
000250 16 45 51 be 98 00 a1 be db 9c 41 3e 7f 59 88 be
       -0.2043651 -0.31445765 0.18907492 -0.2663078
000260 da 15 85 be c9 6f 43 be 28 04 87 be c0 81 74 3e
       -0.25993234 -0.19085611 -0.26370358 0.2387762
000270 da ed 11 bd de 86 85 be 5c c5 80 be 0b 24 44 3e
       -0.035627224 -0.26079458 -0.25150573 0.19154374
000280 31 3b 0e be 47 d0 52 3e cf 0c 8c be 66 b5 c9 bc
       -0.13889767 0.20587264 -0.27353522 -0.02462263
000290 bc ff d6 3c 25 f5 ee bd b6 3f 26 3e 56 a3 99 be
       0.02624499 -0.11667851 0.16235241 -0.30007428
0002a0 c5 f6 52 3e b2 df ae 3d 06 83 99 3a 61 e1 6a 3e
       0.20601948 0.0853876 0.0011712022 0.22937538
0002b0 d7 cc 27 3e d1 c2 74 3d b3 dd 27 ba 48 0b ec 3c
       0.16386734 0.059756104 -0.000640358 0.028813973
0002c0 c0 0b 0a 3e 6f b6 fa 3d 07 b5 99 3e da 65 33 3e
       0.13481045 0.12241828 0.30020925 0.17519322
0002d0 f2 2a 9a be 41 c3 c5 bd 78 ec 4c be ec a5 86 3e
       -0.3011089 -0.09656382 -0.2001208 0.26298463
0002e0 e4 ab 3e bd 00 2a 58 be 86 0f 77 be 26 2f 35 3c
       -0.046550646 -0.21109772 -0.24127015 0.011058604
0002f0 8a 52 29 3e 46 e8 80 be b8 37 86 3e a5 24 61 3e
       0.16535392 -0.2517721 0.26214385 0.21986635
000300 85 c9 5a be 84 8f 85 bd d9 68 73 be 5f d8 89 be
       -0.21365936 -0.06521514 -0.23770465 -0.2692289
000310 61 80 6b bd d0 42 10 be db 2a c6 bd 48 3e e6 bc
       -0.05749548 -0.14087987 -0.09676143 -0.02810587
000320 28 df 0a be 76 25 64 be da 46 2b 3e 4c fa 41 3e
       -0.1356169 -0.22279915 0.16726246 0.18943137
000330 49 23 74 3e 9b 31 8b 3e 29 5d 8f be 36 5d b4 3c
       0.23841585 0.27186283 -0.28000763 0.022017103
000340 4f 57 30 be 6e 93 66 be 69 e2 7e 3e d3 ac 73 3d
       -0.17220806 -0.22517177 0.24891056 0.05949099
000350 e6 a3 86 3e 93 be e2 bd 51 ce 7a 3d 6d 89 e9 3c
       0.2629692 -0.110715054 0.061231915 0.028507913
000360 b6 bf 2f be fd fe 4b 3e 68 71 68 3d 9f 41 8d 3d
       -0.17162976 0.19921489 0.056748778 0.06897282
000370 12 cd 7e 3e 50 af 0d 3e de 04 91 be ec 8f ad 3d
       0.24882916 0.13836408 -0.28324026 0.084747165
000380 83 03 e6 3d 1d ea a3 be cf 5d 4f 3e 36 d6 a1 be
       0.112311386 -0.32014552 0.20250629 -0.31608742
000390 c7 89 84 3b 44 7c 40 3e da de 87 3e 8c dd 9c be
       0.0040447447 0.18797404 0.2653721 -0.30637777
0003a0 83 03 23 3e cf b5 8c be d4 8c 8b be 00 ce 91 bd
       0.15919308 -0.2748246 -0.2725588 -0.071193695
0003b0 d1 c3 2a 3e ab 85 8b 3e da 22 34 be 03 5b 78 3c
       0.1667626 0.27250418 -0.1759142 0.015158418
0003c0 70 02 57 be 97 84 f4 3d 1c 4e 70 bb e9 ca d7 bd
       -0.20997024 0.11939352 -0.003666765 -0.10536749
0003d0 11 8f 85 be 66 67 53 3b 64 04 91 3d b5 d6 3a 3e
       -0.26085714 0.0032257675 0.070809156 0.18245967
0003e0 00 8e 82 3b df a9 c2 3d 59 c9 5b 3e cd b4 92 bd
       0.003984213 0.095050566 0.21463527 -0.07163391
0003f0 79 e2 f0 bd 83 3b 8b 3e 50 07 10 be a2 a6 2c 3e
       -0.11761946 0.2719384 -0.1406529 0.1686044
