converted_model1.tflite (tflite, 651284 bytes, 8 tensors)

conv2d_2/Conv2D_bias f4 [16]
000000 1b 05 03 bd 09 ca 05 3c ec 0f 06 3d 94 b2 fa 3c
       -0.03198729 0.008165845 0.032730028 0.03060273
000010 f4 57 d7 3b 77 89 08 bd 54 93 d4 3d 8d ef 67 3c
       0.006571764 -0.03333422 0.10379663 0.014156234
000020 41 ad 78 3c b4 73 33 bc 7c 49 2d bb f9 ab 8a bc
       0.015178026 -0.010952879 -0.0026441505 -0.016927706
000030 d7 fb 04 bb 24 ef 41 bc 7d af 0a 3c 3c 5c 0c 3c
       -0.002029171 -0.011836801 0.008464691 0.008566912

conv2d_2/kernel f4 [1, 2, 2, 16]
000000 4b 73 25 bd 6d bc 4e be 3f cf be be 44 bc 94 be
       -0.040393155 -0.20189066 -0.3726749 -0.29049885
000010 79 ea 90 3e 58 13 8f 3e bc 8e 63 be 06 46 bc 3b
       0.28303888 0.27944446 -0.22222418 0.005745652
000020 1b bd 55 3e d3 47 8a 3e af 60 2d be e3 31 7d be
       0.2087292 0.27007923 -0.16931413 -0.24726062
000030 9d ff 86 be 25 a7 84 3e 2a 40 8a 3e 10 be 7d 3e
       -0.26366892 0.2590877 0.27002078 0.24779534
000040 b6 d6 55 3e 1f 75 88 3e fd 9f c5 3d 04 cc dd bd
       0.20882687 0.26651856 0.09649656 -0.108299285
000050 55 0b 4f bd e8 1d 2a be 24 6b ee 3d 35 e9 94 3d
       -0.050547916 -0.16612971 0.11641529 0.07271043
000060 40 c0 67 be 37 ad c4 3d d3 ef 58 3e bc eb 8f 3e
       -0.22631931 0.096033506 0.21185236 0.2810954
000070 4a 90 0b be 2c 17 8c 3e f5 f2 d4 bd 3e 24 93 be
       -0.1362926 0.2736143 -0.10397903 -0.28738588
000080 86 1a dc bd be dc 09 3e 0c 5a f5 3d b8 2e b6 3e
       -0.107472464 0.13463113 0.11980066 0.3558252
000090 f1 fe 5f 3e 68 c9 78 3e 86 5f ad bd 44 17 e2 bd
       0.21874596 0.2429558 -0.08465485 -0.11039594
0000a0 55 ce 70 3e a3 58 33 be 70 ec 5e be 0b d1 08 3e
       0.2351621 -0.17514281 -0.21769881 0.13360994
0000b0 b1 1d a6 3e de d0 75 bd c8 e7 45 3e 1b 61 3a bd
       0.32444528 -0.060013644 0.19326699 -0.045502763
0000c0 7c e7 08 bc c3 a4 90 3e 93 09 0d bd 75 34 0f be
       -0.008355971 0.28250703 -0.03443296 -0.13984855
0000d0 e3 bf 91 be d9 b5 2c be a3 f5 2f be 51 f6 3d be
       -0.2846671 -0.16866244 -0.17183547 -0.18550994
0000e0 97 99 21 3e 87 2b 0f 3c 67 0e 2c 3e f7 9c 2a be
       0.15781246 0.008738405 0.16802369 -0.1666144
0000f0 ce 39 8e 3d 04 6a 16 3c e6 98 e6 3d 2c 33 84 3e
       0.06944619 0.0091805495 0.11259632 0.2582029

conv2d_3/Conv2D_bias f4 [32]
000000 5e a8 7d bc 9c a2 02 3c 65 33 03 bd 29 b7 93 bc
       -0.015482036 0.007973339 -0.032031436 -0.018031674
000010 25 20 d0 bc 4b 62 8f 3c 7e 47 00 bd f2 d9 3a 3d
       -0.025405953 0.017502924 -0.03131818 0.045618005
000020 5e 2b 2e bd d4 55 66 3c a9 99 81 bd b1 7a 66 3b
       -0.042521827 0.014058549 -0.063281365 0.0035168345
000030 d5 3f de 3a e1 e2 a1 3b f2 e0 19 3c a8 13 05 3d
       0.0016956279 0.004940376 0.00939201 0.03248945
000040 0c 3a 1c bd a5 9f 3f bd 29 99 77 3d b7 67 f7 3c
       -0.038141295 -0.04678311 0.0604488 0.030200822
000050 2b 81 86 bd e4 c0 95 bc e1 56 fb 3c b3 bb d7 3c
       -0.065676056 -0.018280454 0.030681076 0.02633462
000060 71 b6 99 3c 48 66 43 bc 3f 8f 3e 3c 3f 88 13 3e
       0.018763753 -0.011926241 0.011630832 0.14407443
000070 2a 96 cf 3c 5a ad 96 3c cd 8c b2 bb a8 10 67 bc
       0.025340158 0.018393207 -0.0054489137 -0.014103092

conv2d_3/kernel f4 [32, 2, 2, 16]
000000 41 16 55 bd dc c0 2e 3e d9 17 b3 3d ed bd b6 3d
       -0.052023176 0.17065758 0.08744783 0.08922944
000010 2f 60 f4 bc b4 61 38 3b d0 95 95 3d 85 3f 23 3e
       -0.02983102 0.0028134407 0.07303965 0.159422
000020 0e 1f 24 be 5d 09 93 3d b8 ab 93 3d c0 9d 5f 3e
       -0.16027471 0.0717952 0.07210487 0.2183752
000030 11 37 4b 3e 9c 51 b0 bd bc 1c 00 3d 41 90 67 be
       0.19845225 -0.08609316 0.031277403 -0.22613622
000040 05 92 54 3e ef 4b 24 be ff c0 c5 bd 17 69 38 be
       0.20758827 -0.16044591 -0.09655952 -0.18008839
000050 7e 19 74 bc f2 ef a2 3c 3d 1a 18 be 01 87 9e 3d
       -0.014898656 0.019889805 -0.14853759 0.07740594
000060 f1 8c 7b bc d9 01 45 3d 15 f3 a8 3d 05 88 d1 3d
       -0.015353427 0.048097465 0.08249489 0.10231022
000070 66 aa c5 3d f0 38 f2 bd b5 3d cd bd d6 9a 3e 3e
       0.096516415 -0.11827266 -0.10021535 0.18613753
000080 e6 9b 03 bd 8e f6 e4 bd 78 47 01 be ec c8 d3 bd
       -0.0321311 -0.11179839 -0.1262492 -0.10341057
000090 a0 6b 0d 3e 8a 3b bb bd f0 d1 53 3d ec cb 9f bd
       0.13810587 -0.091422155 0.051713884 -0.07802567
0000a0 b8 99 aa 3d 85 95 86 bc 96 f8 30 bd 3a 3f 83 3d
       0.08330101 -0.016428718 -0.04320582 0.06408544
0000b0 e6 92 2d 3e 83 69 c3 3a 60 c4 d8 3d 51 c5 ce 3c
       0.16950569 0.0014908764 0.105843306 0.025240572
0000c0 8e 5f 55 3e 67 ab 13 3e 5c 96 df 3d 86 f1 5d bd
       0.20837232 0.14420854 0.10917351 -0.054185413
0000d0 5a f7 2a 3d 5b 72 ba ba b4 e4 0c 3e 9c 58 58 bd
       0.0417398 -0.0014224754 0.13759118 -0.05281888
0000e0 7f de e0 bd 26 9b 4a bd 27 2d 61 3e 19 9f 02 3e
       -0.10979938 -0.049464367 0.2198988 0.12756003
0000f0 98 fa 22 3e 9b 77 f1 bd 07 80 8c bd e6 77 12 bd
       0.15915906 -0.11790391 -0.06860357 -0.035758875
000100 d6 48 c5 3d 9c c9 77 bd 86 42 b7 3d d0 b4 93 bc
       0.09633033 -0.060495004 0.08948235 -0.018030554
000110 0b 07 a1 3d f3 d9 e1 bd 4f 36 8f 3d 3b e0 ba 3c
       0.078626715 -0.11027899 0.069927804 0.022812
000120 62 47 0e 3d 4b 37 ef 3d 66 2d 91 3c 18 fa d6 3c
       0.034736045 0.11680468 0.017721843 0.0262423
000130 20 f4 09 be 19 56 5b 3e 9e ed c5 3c 4f 50 0c bd
       -0.13472033 0.21419562 0.024161156 -0.034256276
000140 be 0a 9a 3d 56 5e 3f be 9b 60 02 be 16 14 d7 3c
       0.0752158 -0.1868833 -0.12732165 0.026254695
000150 d6 60 aa 3d 47 34 f7 3d d0 3b a1 bd 9c c6 20 3e
       0.08319251 0.12070518 -0.078727365 0.15700763
000160 a1 99 19 be 23 32 21 bd 09 65 fb bc e8 d7 04 3d
       -0.15000011 -0.039354455 -0.030687826 0.032432467
000170 94 97 70 bd 42 5f 28 3e e5 9c ee bc f7 3b 51 3d
       -0.058738306 0.16442588 -0.029127548 0.051082578
000180 f3 79 ac 3b c2 5a c4 bd 31 93 17 3e 04 f3 10 be
       0.005263561 -0.09587623 0.14802243 -0.14155203
000190 89 5e 1f be 3e 95 18 be ac ef a5 bd 17 cf 13 3e
       -0.15563406 -0.14900681 -0.081023544 0.14434467
0001a0 d0 2c c7 39 35 64 d1 3d a2 10 4d 3e a5 99 f7 3d
       0.00037989626 0.10224191 0.20025876 0.12089852
0001b0 6a 35 e3 3c 68 4c 30 be 67 4e eb 3d fb 8c df 3d
       0.02773543 -0.17216647 0.114895634 0.10915562
0001c0 5f ac 81 3d 13 91 dd bd 61 41 ba 3d b0 ec c0 bc
       0.06331705 -0.10818686 0.09094501 -0.023550361
0001d0 3e 63 f8 3d 3d b3 26 be 5f 49 4b bd c7 57 1c be
       0.12128304 -0.16279311 -0.04963052 -0.1526786
0001e0 61 11 ab 3d b7 4b 30 3e a2 21 80 3c a1 f9 8a bd
       0.08352924 0.17216383 0.015641037 -0.06785894
0001f0 00 68 2f bd 0b cc 6c bd 00 aa 20 bd 5c f1 0d 3c
       -0.04282379 -0.057811778 -0.039224625 0.008663502
000200 c7 e3 49 bd 08 6b df 3d de 90 50 b9 e8 a6 b8 bc
       -0.04928949 0.109090865 -0.00019890393 -0.022540525
000210 e2 3c ab bd 32 dd 54 bd eb a6 2e be 83 cc 67 3d
       -0.08361222 -0.05196876 -0.17055862 0.056591522
000220 5a c6 10 be 2a 8c 25 3d 6e de be 3d 42 99 1b 3e
       -0.14138165 0.040416874 0.09319769 0.15195182
000230 f0 1b d1 bd 41 1a 16 3e 60 1a cf 3d 5f 54 9d ba
       -0.10210407 0.14658453 0.101124525 -0.0012003294
000240 af 6b 58 bc a2 28 4c bd 8c 78 85 bd 6b 30 cc 3d
       -0.0132092675 -0.049843438 -0.06517133 0.099701725
000250 da 43 86 bd 67 6f cc 3d 22 72 b6 3d ae 67 d1 bd
       -0.065559104 0.09982186 0.08908488 -0.102248535
000260 4f f3 89 bc 19 21 f6 3d c3 b8 ed 3d 5f 42 fe 3d
       -0.016839651 0.120180316 0.11607506 0.12415003
000270 13 bb 24 3b 89 7a 22 bd 30 a9 1d 3e eb cd 15 3e
       0.002513592 -0.03966764 0.15396571 0.14629333
000280 cd 9e 5f bd 4d ea 96 bc ed 9a 0d be b1 f6 8e 3b
       -0.054594804 -0.01842227 -0.13828631 0.004362904
000290 bf 24 87 bd 32 df 07 3d 66 e6 09 be bd 4b 14 3e
       -0.06598806 0.03317184 -0.13466796 0.14482017
0002a0 5d 26 be 3d 04 5f ac 3d b0 67 2e bd f4 2f 06 3e
       0.09284661 0.0841656 -0.042579353 0.1310423
0002b0 65 08 38 b9 3e 44 1a be 4f d6 1a 3e 9b ee 41 be
       -0.00017550735 -0.15065095 0.15120815 -0.18938677
0002c0 bc b6 7e 3c 3b 1e a7 bd 55 26 1d be df e3 dc bd
       0.015546497 -0.08160063 -0.15346654 -0.107856505
0002d0 0f 55 d8 3d dd 3b 58 3d 6d b9 dd 3b 43 24 1c 3e
       0.10563099 0.052791465 0.0067664892 0.15248208
0002e0 ef 06 39 bd 9b e0 f1 3d 5e 91 22 3e 7b 76 31 be
       -0.045172628 0.11810418 0.15875766 -0.17330353
0002f0 f0 21 8a bd 3a 5b 0d 3e 21 79 ed bb 93 c8 32 bd
       -0.06744754 0.13804331 -0.0072471057 -0.043648314
000300 c0 a5 1f bc 5e 52 aa 3d f0 95 06 3c 59 30 58 bc
       -0.009744108 0.083164915 0.008214459 -0.013195121
000310 96 2b 12 3e a1 e2 23 3e 0f e0 10 bc d4 22 e1 bc
       0.14274439 0.16004421 -0.008842482 -0.027482428
000320 e6 21 3d bd d6 33 16 3e a0 6d f6 bd 7a 41 c9 3c
       -0.046174906 0.14668211 -0.12032628 0.024567354
000330 10 46 30 3b 9e c4 fb 3d 9d 80 39 3d 50 23 8d 3d
       0.002689723 0.12293361 0.04528867 0.06891501
000340 dd c0 61 3d 05 c2 74 3c 9f 5f dd bd 06 78 f3 3d
       0.05511557 0.014938836 -0.10809254 0.11888127
000350 e1 38 e3 3d bd 50 0d be dc bd 63 bd 03 ca bd bd
       0.11094833 -0.1380033 -0.055600986 -0.09267046
000360 73 fc db 3d 94 44 d9 3a 3f 9e 1a 3e 48 f9 1b 3e
       0.1074151 0.0016576224 0.15099429 0.15231812
000370 6c f4 df bc ca 41 5b 3d 80 c0 68 bd a6 4a b8 3d
       -0.02733823 0.05352954 -0.056824207 0.08998613
000380 f9 93 c6 3d 65 d6 35 be 38 b6 14 be a3 ae 6d 3d
       0.09696192 -0.17757566 -0.14522636 0.058027875
000390 18 64 25 bc 0c fe 1a 3e e0 69 dc bd 93 82 70 bc
       -0.010094665 0.15135974 -0.107623816 -0.014679569
0003a0 2f 4a 28 be 56 1b 9d 3d f6 aa 01 be dd d0 11 be
       -0.16434549 0.076712295 -0.12662873 -0.14239831
0003b0 7a 1d f1 bd 6e 1d 2f be 35 7e 02 3e 75 0a 36 be
       -0.117732 -0.1710107 0.12743457 -0.17777427
0003c0 44 75 6d b9 57 8b 89 3d 38 3f db bc 7b 28 ac bc
       -0.00022645766 0.0671603 -0.026763543 -0.021015396
0003d0 27 f9 d4 bd 74 51 f1 bc 3d a0 c5 bd 0a e4 a5 bd
       -0.103990845 -0.029457785 -0.09649704 -0.081001356
0003e0 e8 b0 b3 3d 9c 2f 09 3e 5c ee 37 bd c3 8f 9b 3d
       0.087739766 0.13397068 -0.04490505 0.0759578
0003f0 dc f7 51 3d f3 12 2a bd 9f af a6 bd 9d 3a 83 bd
       0.051261768 -0.041521978 -0.08138966 -0.06407664

dense_2/MatMul_bias f4 [64]
000000 d8 57 3a bc d7 a2 0f bb e0 da b8 bc e1 3e 32 bc
       -0.011373483 -0.0021917128 -0.022565305 -0.010879249
000010 bd 7c 82 3c 14 61 0c bc c1 d4 09 bc 24 71 dd bb
       0.01592862 -0.008568067 -0.008412541 -0.006757872
000020 bd b7 dd bb cc 22 5c 3b 5a 14 10 3d b2 62 35 3a
       -0.006766288 0.0033590076 0.03517566 0.0006919309
000030 23 3f 08 bc 31 7e 08 bc a3 41 dd bb e0 9c ed bb
       -0.008315834 -0.008330868 -0.0067522093 -0.007251367
000040 ea ba 25 bb 9b 9d 01 bc d4 cf f1 3c 00 e2 aa bb
       -0.0025288411 -0.007911111 0.029518045 -0.0052149296
000050 b9 a0 30 bc ba 91 27 bc ba 03 e2 3b 46 48 23 bc
       -0.010780507 -0.010227615 0.006897417 -0.009965962
000060 b9 4c 76 bb b1 02 93 bc 6a 92 ee bb 10 b9 43 ba
       -0.0037582351 -0.01794562 -0.0072806375 -0.0007466236
000070 71 61 0d bc 80 25 81 3b 87 54 05 bc fd 77 0f 3c
       -0.008629189 0.003941238 -0.008137829 0.008756635
000080 47 da 06 3c 0e d7 29 bc 68 f9 8a bc 07 69 b6 3b
       0.008230752 -0.010366214 -0.01696463 0.0055667195
000090 d1 b9 e4 bb 9d 76 e8 bb fe a7 c4 bb 76 7e 20 bc
       -0.006980159 -0.007094218 -0.0060014715 -0.009795776
0000a0 52 99 c4 bb d7 fa 00 bc d1 21 68 bc 4d 76 83 bc
       -0.0059997225 -0.007872305 -0.014168219 -0.016047621
0000b0 39 ad fd 3b b1 f0 9d 3b 88 0c 89 bb 4b 75 3e bb
       0.007741597 0.0048199524 -0.004182402 -0.0029061611
0000c0 d2 03 c2 bc d2 8e 56 bb 3e bd c4 bb dd 46 bd bb
       -0.023683462 -0.0032738936 -0.0060040047 -0.00577627
0000d0 04 e2 aa bc 10 a8 ce ba 9d fd a7 bb a4 6c df bb
       -0.020859726 -0.0015766639 -0.0051266686 -0.006818371
0000e0 b3 e0 c4 bb 55 9f 57 bc dc 2b e1 bb 78 17 85 bc
       -0.0060082315 -0.013160546 -0.0068716835 -0.016246542
0000f0 7f 8f d5 3b 7e 9e 3c 3b 46 8f bb bb 50 80 50 3b
       0.00651735 0.0028780992 -0.0057238666 0.0031814761

dense_2/kernel/transpose f4 [64, 2496]
000000 e3 7c 23 bd 0c 6a 01 3d 14 b3 05 3d 6c f4 03 3d
       -0.039914023 0.031595275 0.032641485 0.03221552
000010 6a 12 05 3d 94 f4 14 bd 4b bb 3b bd 1c 6b d3 bc
       0.032488264 -0.03636606 -0.045832913 -0.02580791
000020 a2 a0 c3 bb 67 9f be 3c bb 77 36 bc aa c9 61 bd
       -0.0059700767 0.023269368 -0.011136944 -0.055123962
000030 b2 6e 01 bd 96 b5 cc bc 0f 4d 44 bd 48 dc 41 bb
       -0.031599708 -0.02498893 -0.04792505 -0.002958076
000040 43 5a ba 3c 41 00 c2 ba 5e 3b 36 bc b7 27 5d bc
       0.022748118 -0.0014801101 -0.011122553 -0.013498238
000050 04 48 db 3c 31 81 a2 3c 76 46 09 3d 0b 7c 16 3d
       0.026767738 0.019836994 0.033514462 0.03673939
000060 86 9a 8e bb 94 8a bc bc d3 3c ee 3c 62 c6 76 3c
       -0.0043519167 -0.023015298 0.029081738 0.015061947
000070 64 8e 94 3c 9a f0 fe bc e0 bc a5 3c 57 04 4a bd
       0.018134303 -0.031120587 0.020231664 -0.049320545
000080 2d 2b dc bc bd 92 a6 ba 19 63 1d 3d ec fa 01 bc
       -0.026876057 -0.0012708526 0.038424585 -0.00793336
000090 0e 09 a6 bc b3 27 47 bc 5c 43 d3 3c d6 a5 73 bc
       -0.02026799 -0.012155461 0.025788955 -0.014871081
0000a0 d6 4a 61 bd bc fd a8 bc cf ab 8e bb 11 3c 89 bc
       -0.05500301 -0.020628802 -0.0043539773 -0.016752275
0000b0 7d a4 24 3c 47 75 f2 bc 9e b9 87 3c 65 5e e9 3c
       0.010048983 -0.029596938 0.016568001 0.028487394
0000c0 89 6a 17 bb 46 c6 04 bd 7a 32 02 bd 72 0d bc 3c
       -0.0023104271 -0.03241565 -0.03178642 0.02295563
0000d0 d7 34 6d bc 88 d9 66 3c 0e 56 1c 3c 52 15 9a bd
       -0.01447793 0.014089949 0.009542001 -0.07523598
0000e0 f4 97 50 bc 46 2a 83 bd f6 8e d2 3a 69 56 3b bc
       -0.012731541 -0.064045474 0.0016064334 -0.011434176
0000f0 65 fc 16 3d 82 a8 8c bc 43 77 a9 3c bc 80 c1 3c
       0.036861796 -0.017170195 0.020686751 0.023620956
000100 97 16 54 3c 48 05 17 3b 16 67 3b bd b6 05 fc bb
       0.012944839 0.002304392 -0.045752607 -0.0076911105
000110 df 0c 4e bd 88 fa 92 3c 26 1b a5 3c 5f 2e cc bc
       -0.050305244 0.017941728 0.020154547 -0.024924455
000120 f5 a3 f5 3b c5 2b 2e bd da d9 b2 3c 81 ca 80 bd
       0.007496352 -0.04252221 0.021832395 -0.062886246
000130 2f 3d bb 3c f2 5b 35 bd 8a 60 93 ba c7 8e 87 bc
       0.022856323 -0.04427714 -0.0011243981 -0.016547574
000140 63 28 f1 3b 1a 33 87 3b f1 cb 82 bc 32 9a a5 ba
       0.007359551 0.004125965 -0.015966387 -0.0012634455
000150 27 bd 16 3c 4e fb 26 bd c9 a1 c8 3c 8e f1 ef 3c
       0.009200371 -0.040767007 0.024491208 0.029289987
000160 52 1d 30 bd fe 60 bd bc 6c f1 1b 3b e3 e0 13 bd
       -0.042996712 -0.023117539 0.0023795022 -0.03610314
000170 b1 a6 22 bd 9b 54 46 3c de 27 e5 3c b7 9b bb 3c
       -0.03970975 0.012105132 0.027973112 0.022901399
000180 d9 b4 a4 3c b8 a6 c6 bc a7 fc 2e bd c5 b7 1d bd
       0.020105766 -0.02424942 -0.042721417 -0.038505334
000190 ba 42 d0 3a b3 d1 73 bc ad 65 61 3c c2 f3 68 bd
       0.0015889027 -0.014881539 0.013757152 -0.05687309
0001a0 7b 1c fb bc af 93 19 bd bf 4e b4 bc e9 3a 57 3c
       -0.030653229 -0.037494358 -0.022010205 0.013136604
0001b0 21 4a 55 bd 41 6c 97 3b a6 69 24 3d df 47 40 bd
       -0.052072648 0.004621059 0.040139817 -0.04694354
0001c0 63 6d 8d 3c 21 3f 4d 3c 5e bb 9b 3d d2 f8 ac bc
       0.017264074 0.012527258 0.07604097 -0.02111474
0001d0 07 c2 35 3d 7d 99 a3 bc 27 23 37 bd 44 66 4d bd
       0.044374492 -0.01997065 -0.04471126 -0.050146356
0001e0 79 a1 cf bc 0b a8 11 3c f1 f7 27 3d ea 15 fa 3b
       -0.02534555 0.008890162 0.04100794 0.007632007
0001f0 11 0c cb bc 8c f9 19 bc 6f 8c ff 3a 64 cf 34 ba
       -0.024786027 -0.0093978755 0.0019496809 -0.00068973587
000200 6c ea 6e bd cb f3 3d 3c 4e 49 41 bd 9a c4 d5 bc
       -0.05832903 0.011593769 -0.04718905 -0.026094723
000210 51 8a 35 bd d5 2a 7e 3c c9 0b 03 bd 97 b2 0e 3d
       -0.044321362 0.015513142 -0.03199366 0.034838285
000220 86 0c 36 3d 35 59 eb 3c 4d c5 ee bc 92 a3 53 bd
       0.044445537 0.02872906 -0.029146815 -0.051669665
000230 37 41 25 bd ed 85 75 bc 1f 3f 0d 3d 9a a2 fe bc
       -0.040345397 -0.014985544 0.034484025 -0.031083394
000240 76 64 74 bc 37 3a 6b bd 3c 11 81 3b e8 82 47 bb
       -0.01491653 -0.057428565 0.003938822 -0.0030443016
000250 95 11 78 bc 30 79 16 bd 3f 3d 0d 3d d6 1f 83 3d
       -0.015140911 -0.036736667 0.034482237 0.064025566
000260 34 83 3b bd 98 49 96 bc d4 f1 ce bc 81 a2 94 bc
       -0.045779422 -0.01834564 -0.025261797 -0.018143894
000270 f6 72 24 3d be dd da ba ce 6a ee bc 45 c1 09 3d
       0.040148698 -0.0016698164 -0.029103663 0.03363158
000280 6b fd 05 3d 0f 8b 63 3c f4 34 4e 3c 4d 7e 3e bc
       0.03271238 0.013888135 0.012585867 -0.011626792
000290 40 11 3d bd 2f 2b de bc 1f 8f 80 3c 05 e0 ad bc
       -0.04615903 -0.0271202 0.015693245 -0.021224985
0002a0 a3 af 4d bd 2c aa 31 bd 44 83 39 bd 9c 08 4d bd
       -0.05021633 -0.04337518 -0.0452912 -0.05005704
0002b0 4c 8f 82 bd e6 ea 2f 3d dc 49 39 3c 76 09 65 bd
       -0.06374988 0.042948626 0.011309113 -0.055917226
0002c0 91 b4 9d bc 3f ad f6 3c aa e4 a5 3c 26 71 f7 3c
       -0.01925114 0.030111907 0.020250637 0.03020532
0002d0 7b 91 4a 3c aa 95 3a 3c 61 e5 9f 3c 84 3a fe bc
       0.012363787 0.011388222 0.019518556 -0.031033762
0002e0 80 e2 6a 3c 88 0b 0d bd 43 e7 24 bd 7c 17 56 bd
       0.014336228 -0.034434825 -0.04025961 -0.05226849
0002f0 d5 d5 fe bc 38 5e 1e 3d 59 d6 35 3d 68 38 d4 3c
       -0.031107822 0.038664073 0.04439387 0.025905803
000300 e2 8d e9 bb 86 1c 05 3d 7f 6d 60 bd 1e 1a 11 bd
       -0.0071275095 0.032497905 -0.054791924 -0.035425298
000310 87 af 27 bd 9f 36 9f 3c df 98 18 3c f4 fc 0c bd
       -0.04093888 0.019435225 0.009313791 -0.034420922
000320 36 6a 36 bd 37 f0 9c bc 77 8b 50 bd f0 ff ae bc
       -0.044534884 -0.019157512 -0.050914254 -0.021362275
000330 f0 fd ae 3c e4 89 ec bc 48 6d c7 3a e8 c1 22 bd
       0.021361321 -0.028874345 0.0015215063 -0.039735705
000340 65 55 30 3d 18 95 31 bd b9 7f dd bb 58 55 19 3d
       0.04305019 -0.043355078 -0.0067596105 0.037434906
000350 43 b1 90 3b 34 09 a0 3c ee 58 58 3b e6 83 64 3b
       0.0044156625 0.019535638 0.003301199 0.0034868657
000360 d1 58 f9 bc 40 c3 c1 3b dc 65 a5 bc b0 d4 af 3c
       -0.030437859 0.005913168 -0.020190172 0.021463722
000370 c9 34 b3 bc 13 a0 c3 bc 30 cf 65 bc e6 e8 d3 bb
       -0.021875756 -0.02388004 -0.014026448 -0.0064669726
000380 13 89 a3 3c 24 9d e3 3c b7 da 85 bc 57 8a d1 3c
       0.019962823 0.027784891 -0.016339643 0.02557866
000390 f8 52 97 3b 49 7f 0f bd d5 6e aa bc 69 6a 20 3c
       0.004618045 -0.035033498 -0.020804802 0.009790995
0003a0 eb f7 88 3c d1 52 20 bd 0c e4 b2 bc 58 5b 5f bd
       0.016719779 -0.03914148 -0.021837257 -0.05453047
0003b0 8f e4 57 bd b8 b6 4c bc 76 62 20 bc 38 96 07 bd
       -0.052708205 -0.012494735 -0.0097891 -0.033102244
0003c0 89 79 f4 bc 60 73 89 3c fc 38 60 bc 62 a8 98 bc
       -0.029843109 0.016778648 -0.013685461 -0.018634979
0003d0 89 58 56 b9 4e 83 09 bd de ab 87 bc 98 eb 3f 3d
       -0.00020441612 -0.033572488 -0.016561445 0.04685554
0003e0 5f d5 d9 bc 3d d8 5b bd 69 cb de 3a 9e b4 94 bc
       -0.026591001 -0.053673018 0.0016997877 -0.018152531
0003f0 2f 79 3a bd 0f 5a 85 bc 23 0f 40 bd 6c 8b 97 3c
       -0.045525726 -0.016278295 -0.046889435 0.018499099

dense_3/MatMul_bias f4 [6]
000000 4d a7 ae 3c 31 e0 e1 bd 43 b8 e4 3c fe 7c 3e bc
       0.02132001 -0.11029089 0.027919894 -0.01162648
000010 fb 52 72 3d a4 05 84 bb
       0.059161168 -0.0040289927

dense_3/kernel/transpose f4 [6, 64]
000000 8c d1 b7 3c 23 42 e7 3d 8d 56 7f 3c d6 ef 85 be
       0.022438787 0.112919115 0.0155846 -0.26159543
000010 e0 bd 1f be 62 ba 57 be 89 73 7b bc 59 08 60 bd
       -0.15599775 -0.21067193 -0.01534737 -0.05469546
000020 4a d9 30 3e ab 0f dd bd b3 00 05 3e 48 36 02 3e
       0.17270389 -0.10794004 0.12988548 0.12716019
000030 05 b0 a6 3d bf 35 4a 3c cd a2 07 be 3a 3d db 3d
       0.08139042 0.012341916 -0.13245697 0.107050374
000040 0a 40 2c bb 63 b4 35 be 1a 47 57 bd cb d4 6d be
       -0.0026283287 -0.17744593 -0.052558042 -0.23225705
000050 f2 cd d4 bc ae 33 44 3e 53 a4 16 be ad 5b 14 be
       -0.025977109 0.19160339 -0.14711122 -0.14488097
000060 75 9f 79 3e 63 e2 e6 bd 10 9d af bd 72 a3 86 3e
       0.24377234 -0.112736486 -0.08574879 0.26296574
000070 22 53 31 3d c5 b0 6e bd e5 5f a9 3d 0f fc 73 3d
       0.043292172 -0.05827405 0.082702436 0.059566554
000080 d8 22 ec 3d ef 11 69 3e c6 0c 0e be 61 46 57 3c
       0.115300834 0.22760747 -0.1387206 0.013139338
000090 56 21 89 bd da 83 64 bd 4e 8e 8c be 39 01 30 bd
       -0.066958115 -0.055789806 -0.2745232 -0.042969916
0000a0 ea 92 1b 3d 60 b3 12 be 8e ec cb bb 6b e9 7c 3e
       0.037981905 -0.14326239 -0.006223268 0.24698417
0000b0 a6 85 7a be d4 8c 3d be d6 b6 41 3e 0c bc 52 3e
       -0.24465045 -0.18510753 0.18917403 0.20579547
0000c0 f8 9d 07 3e bf 31 1c 3e 89 6c d7 3c 4c 7e 3a 3e
       0.13243854 0.15253352 0.02629687 0.18212241
0000d0 d7 94 53 be 47 d3 79 3e ec ca 4c be e1 d2 f6 3d
       -0.20662247 0.24397002 -0.19999284 0.12051941
0000e0 7b 6c 37 3e 6e bd 60 3d 78 0f 86 be 0c e2 cb 3d
       0.17912476 0.054868154 -0.26183677 0.099552244
0000f0 8b 74 20 3b 14 a3 3d 3e cf 08 3c be fa e5 17 3e
       0.0024483528 0.1851924 -0.18362735 0.14833823
000100 33 7a f5 bc 10 d0 c2 3d 65 87 99 3e e4 3c 12 3e
       -0.029965496 0.09512341 0.2998611 0.1428104
000110 de 7f 8a be c7 97 d0 bc e3 31 26 be 31 cf 8f 3e
       -0.2705068 -0.025462998 -0.16229968 0.28087762
000120 e0 db 07 3d c0 d7 a0 be d3 4e 42 be 45 d5 01 be
       0.033168674 -0.31414604 -0.18975382 -0.12679012
000130 d9 f2 85 be 1d 97 cf 3c cd ea 80 3e 68 99 9f 3d
       -0.2616184 0.025340611 0.2517914 0.07792932
000140 4e 1f 8a be 9c cd f2 3d 1e fb a6 be cc 5a 3d 3e
       -0.2697701 0.11855623 -0.32613462 0.18491668
000150 58 96 30 3e d5 27 8c be d8 2c 79 be 6e 02 a1 bd
       0.17244852 -0.2737414 -0.24333513 -0.078617916
000160 3b f6 d9 bd 9a 49 6e 3e 2c 81 82 be a0 8a 27 3e
       -0.10642668 0.23270264 -0.25489175 0.16361475
000170 bd 88 31 be 06 27 af be 2f 1c 6b 3e 00 23 2e 3e
       -0.17337318 -0.3420946 0.2295997 0.17005539
000180 e7 3a b1 be b2 9b 73 be 04 f2 3b 3e d5 1f 52 be
       -0.3461525 -0.23789862 0.1835404 -0.20519955
000190 49 66 91 be c4 90 48 be 07 e6 a2 3d 69 46 05 3e
       -0.2839835 -0.19586474 0.079540305 0.1301514
0001a0 cb c2 10 be 13 18 07 3e 8c b6 5c 3d fa f8 80 3e
       -0.14136808 0.13192777 0.053885028 0.25189954
0001b0 65 c6 64 bd 91 a6 f0 3d 33 fd fb 3d db dc 5b be
       -0.055853266 0.1175052 0.12304153 -0.21470968
0001c0 ae 39 3c 3e 0a f8 0c 3e fa d7 84 be da 7e d1 3b
       0.18381378 0.13766494 -0.25946027 0.0063932957
0001d0 34 10 16 3e 00 46 8f be 8f 9a 72 be 8f 79 73 be
       0.14654619 -0.27983093 -0.23691772 -0.2377684
0001e0 6c 44 30 bc 84 59 50 3e 4b 8c 2d bc c6 2c f3 3d
       -0.010758501 0.20346648 -0.0105925305 0.11873774
0001f0 85 9b 15 be 91 49 23 3d ff 3c 89 3e bb 45 99 be
       -0.14610107 0.03986508 0.2680435 -0.29936013
000200 04 0f 91 be ac 72 a0 3e 63 2e 91 3d 79 6a 6f 3e
       -0.2833177 0.31337488 0.07088926 0.2338046
000210 1e d4 4d 3e 40 61 06 bb a2 3f 8c be 51 29 df 3d
       0.20100448 -0.0020504743 -0.27392298 0.10896552
000220 c0 57 ab 3d 3f 2a b6 be f0 63 7b 3e c5 6c f4 3d
       0.08366346 -0.35579106 0.24549842 0.11934809
000230 fa 59 39 3e 91 7e c9 bc 6e 12 38 3d ca 03 6a be
       0.1810073 -0.024596484 0.04493945 -0.22853008
000240 f2 ff eb 3d d1 53 c5 bd e9 64 dc bc 71 76 60 3e
       0.11523427 -0.09635127 -0.026903586 0.21920182
000250 b0 60 ab 3d a1 df d3 bd a3 72 f1 bd 0e fa 89 3e
       0.08368051 -0.10345388 -0.11789443 0.2694859
000260 5e 1f ae bd 26 a8 ea 3d aa c7 9a bd f0 1e 73 3e
       -0.085020766 0.11457853 -0.07557614 0.2374227
000270 a3 a1 db 3c 98 55 6f 3b d4 ae fe bd b5 37 54 be
       0.026810473 0.0036519524 -0.124356896 -0.20724376
000280 e7 61 70 3e 80 be 4f 3e b4 73 18 be 06 91 90 be
       0.23474847 0.20287514 -0.14887887 -0.28235644
000290 e6 7f 25 3e b3 2c 30 3e 32 7e 10 bd 52 d5 5b be
       0.1616207 0.17204551 -0.0352766 -0.21468094
0002a0 a6 a4 09 3e 80 bc 8d be de c7 98 be 6b 54 0d be
       0.13441715 -0.27682877 -0.29839987 -0.13801734
0002b0 38 2c 4a 3d fe 4d 94 3e 89 a4 36 bd 55 01 82 3e
       0.049358577 0.28965753 -0.044590507 0.2539164
0002c0 2d 39 9b be 52 28 97 3d 20 5b 77 bd 9a e3 3f 3e
       -0.3031706 0.07380737 -0.060389638 0.18739167
0002d0 7d 88 b4 bb 85 35 25 3e e2 55 37 bc b1 e8 47 be
       -0.0055094347 0.16133697 -0.01118991 -0.19522358
0002e0 6b 94 71 be d6 43 7b 3e e6 f9 64 be e0 71 a7 be
       -0.23591773 0.24537596 -0.22360954 -0.32704067
0002f0 77 da 45 be ad 3a 86 3e df 7b 04 3e dc 76 7f be
       -0.19321619 0.2621664 0.12937878 -0.24947685
000300 63 e6 dc 3d f9 0d 45 bd cf 17 37 3e 98 79 49 3e
       0.1078613 -0.04810903 0.17880176 0.1967529
000310 aa 15 6f be a6 50 e8 3d 67 7a 89 3e 60 2f 91 be
       -0.23348108 0.113435075 0.26851198 -0.28356457
000320 bb 7a 06 bd c4 09 a1 be e5 cd 6e 3e 05 cc 68 be
       -0.03283189 -0.31452763 0.2332073 -0.22734077
000330 e1 c8 b8 3d aa 80 74 be 61 6d 62 3d b9 d1 57 be
       0.090226896 -0.23877206 0.055280093 -0.21076097
000340 b8 92 11 3e 41 e9 a1 be a3 2e 58 bd 7b 54 89 3e
       0.14216125 -0.3162327 -0.05277885 0.26822266
000350 a7 8b 57 be 60 b8 dc bd 43 88 c5 3e d5 20 30 bc
       -0.21049367 -0.10777354 0.38580522 -0.010750015
000360 c1 89 30 bd 02 cc 3f be 86 15 8a be f3 01 4b 3d
       -0.043100122 -0.18730167 -0.26969546 0.049562406
000370 df ca 2a be 9b 30 4f be 4c b1 02 be 7f f4 a0 3e
       -0.16678952 -0.20233385 -0.12762946 0.31436536
000380 a0 c4 f1 bc e7 c7 cf 3d 82 9a 13 3e e0 55 0a 3e
       -0.029512703 0.1014555 0.14414409 0.13509321
000390 93 c5 06 3e bc 46 8f bc ee 77 93 bd 88 96 2c 3e
       0.13161306 -0.017489783 -0.07200609 0.16854298
0003a0 39 42 82 be 6f e7 8c be 32 d9 ba bd cd 37 4f be
       -0.2544115 -0.2752032 -0.09123458 -0.2023613
0003b0 34 04 02 3e b7 91 9c bd 41 db 43 be ef 8f 7a bd
       0.12696916 -0.076449804 -0.19126607 -0.061172422
0003c0 e1 8e 06 be c4 68 44 be a2 58 77 be 0d 5b 87 be
       -0.13140441 -0.1918059 -0.24154904 -0.26436654
0003d0 74 c2 a3 be ea b7 c7 3d b3 c6 d7 bd 3e 4c 8a 3d
       -0.31984293 0.09751876 -0.10535946 0.06752823
0003e0 df 28 72 3b 47 9f 96 3d cd fb e5 3d 98 94 fe bd
       0.003695063 0.073545985 0.11229668 -0.12430686
0003f0 9f ad 09 3e 18 cb 6e 3e 45 4e 80 3e 63 bc a9 3d
       0.13445137 0.23319662 0.25059715 0.08287885
